2021-05-24 08:53:22.389 | INFO     | __main__:main:48 - Loading data...
2021-05-24 08:53:36.271 | INFO     | __main__:main:76 - 
TemporalSAGE(
  (sequential_embedding_model): SequentialEmbedding(
    (lstm): LSTM(1, 64, num_layers=3, batch_first=True)
  )
  (relational_embedding_model): RelationalEmbedding(
    (softmax_dim_1): Softmax(dim=1)
    (activation_function): LeakyReLU(negative_slope=0.01)
    (linear_1_hop_layer_1): Linear(in_features=171, out_features=171, bias=True)
    (linear_1_hop_layer_2): Linear(in_features=171, out_features=171, bias=True)
    (linear_1_hop_layer_3): Linear(in_features=171, out_features=1, bias=True)
    (linear_2_hop_layer_1): Linear(in_features=171, out_features=171, bias=True)
    (linear_2_hop_layer_2): Linear(in_features=171, out_features=171, bias=True)
    (linear_2_hop_layer_3): Linear(in_features=171, out_features=1, bias=True)
    (linear_3_hop_layer_1): Linear(in_features=171, out_features=171, bias=True)
    (linear_3_hop_layer_2): Linear(in_features=171, out_features=171, bias=True)
    (linear_3_hop_layer_3): Linear(in_features=171, out_features=1, bias=True)
  )
  (combined_prediction_model): FullyConnected(
    (activation_function): LeakyReLU(negative_slope=0.01)
    (linear_layer_1): Linear(in_features=128, out_features=128, bias=True)
    (linear_layer_2): Linear(in_features=128, out_features=128, bias=True)
    (linear_layer_3): Linear(in_features=128, out_features=1, bias=True)
  )
)
2021-05-24 08:53:36.272 | INFO     | __main__:main:78 - Starting training with args:
2021-05-24 08:53:36.272 | INFO     | __main__:main:80 - seq_embed_size: 64
2021-05-24 08:53:36.272 | INFO     | __main__:main:80 - k_hops: 3
2021-05-24 08:53:36.272 | INFO     | __main__:main:80 - hop_layers: 3
2021-05-24 08:53:36.273 | INFO     | __main__:main:80 - lstm_layers: 3
…
